…
[38;5;15m  [39m[38;5;204mSLIDING_WINDOW[39m[38;5;15m:[39m[38;5;15m [39m[38;5;141mfalse[39m
[38;5;204mVERSION[39m[38;5;15m:[39m[38;5;15m [39m[38;5;141m2[39m
[38;5;204mVIS_PERIOD[39m[38;5;15m:[39m[38;5;15m [39m[38;5;141m0[39m

[11/19 05:16:30] detectron2 INFO: Full config saved to ./output/config.yaml
[11/19 05:16:31] d2.utils.env INFO: Using a generated random seed 31412313
[11/19 05:16:34] d2.engine.defaults INFO: Model:
CATSeg(
  (sem_seg_head): CATSegHead(
    (predictor): CATSegPredictor(
      (clip_model): CLIP(
        (visual): VisualTransformer(
          (conv1): Conv2d(3, 1024, kernel_size=(14, 14), stride=(14, 14), bias=False)
          (ln_pre): LayerNorm((1024,), eps=1e-05, elementwise_affine=True)
          (transformer): Transformer(
            (resblocks): Sequential(
              (0): ResidualAttentionBlock(
                (attn): Attention(
                  (out_proj): NonDynamicallyQuantizableLinear(in_features=1024, out_features=1024, bias=True)
                )
                (ln_1): LayerNorm((1024,), eps=1e-05, elementwise_affine=True)
                (mlp): Sequential(
                  (c_fc): Linear(in_features=1024, out_features=4096, bias=True)
                  (gelu): QuickGELU()
                  (c_proj): Linear(in_features=4096, out_features=1024, bias=True)
                )
                (ln_2): LayerNorm((1024,), eps=1e-05, elementwise_affine=True)
              )
              (1): ResidualAttentionBlock(
                (attn): Attention(
                  (out_proj): NonDynamicallyQuantizableLinear(in_features=1024, out_features=1024, bias=True)
                )
                (ln_1): LayerNorm((1024,), eps=1e-05, elementwise_affine=True)
                (mlp): Sequential(
                  (c_fc): Linear(in_features=1024, out_features=4096, bias=True)
                  (gelu): QuickGELU()
                  (c_proj): Linear(in_features=4096, out_features=1024, bias=True)
                )
                (ln_2): LayerNorm((1024,), eps=1e-05, elementwise_affine=True)
              )
              (2): ResidualAttentionBlock(
                (attn): Attention(
                  (out_proj): NonDynamicallyQuantizableLinear(in_features=1024, out_features=1024, bias=True)
                )
                (ln_1): LayerNorm((1024,), eps=1e-05, elementwise_affine=True)
                (mlp): Sequential(
                  (c_fc): Linear(in_features=1024, out_features=4096, bias=True)
                  (gelu): QuickGELU()
                  (c_proj): Linear(in_features=4096, out_features=1024, bias=True)
                )
                (ln_2): LayerNorm((1024,), eps=1e-05, elementwise_affine=True)
              )
              (3): ResidualAttentionBlock(
                (attn): Attention(
                  (out_proj): NonDynamicallyQuantizableLinear(in_features=1024, out_features=1024, bias=True)
                )
                (ln_1): LayerNorm((1024,), eps=1e-05, elementwise_affine=True)
                (mlp): Sequential(
                  (c_fc): Linear(in_features=1024, out_features=4096, bias=True)
                  (gelu): QuickGELU()
                  (c_proj): Linear(in_features=4096, out_features=1024, bias=True)
                )
                (ln_2): LayerNorm((1024,), eps=1e-05, elementwise_affine=True)
              )
              (4): ResidualAttentionBlock(
                (attn): Attention(
                  (out_proj): NonDynamicallyQuantizableLinear(in_features=1024, out_features=1024, bias=True)
                )
                (ln_1): LayerNorm((1024,), eps=1e-05, elementwise_affine=True)
                (mlp): Sequential(
                  (c_fc): Linear(in_features=1024, out_features=4096, bias=True)
                  (gelu): QuickGELU()
                  (c_proj): Linear(in_features=4096, out_features=1024, bias=True)
                )
                (ln_2): LayerNorm((1024,), eps=1e-05, elementwise_affine=True)
              )
              (5): ResidualAttentionBlock(
                (attn): Attention(
                  (out_proj): NonDynamicallyQuantizableLinear(in_features=1024, out_features=1024, bias=True)
                )
                (ln_1): LayerNorm((1024,), eps=1e-05, elementwise_affine=True)
                (mlp): Sequential(
                  (c_fc): Linear(in_features=1024, out_features=4096, bias=True)
                  (gelu): QuickGELU()
                  (c_proj): Linear(in_features=4096, out_features=1024, bias=True)
                )
                (ln_2): LayerNorm((1024,), eps=1e-05, elementwise_affine=True)
              )
              (6): ResidualAttentionBlock(
                (attn): Attention(
                  (out_proj): NonDynamicallyQuantizableLinear(in_features=1024, out_features=1024, bias=True)
                )
                (ln_1): LayerNorm((1024,), eps=1e-05, elementwise_affine=True)
                (mlp): Sequential(
                  (c_fc): Linear(in_features=1024, out_features=4096, bias=True)
                  (gelu): QuickGELU()
                  (c_proj): Linear(in_features=4096, out_features=1024, bias=True)
                )
                (ln_2): LayerNorm((1024,), eps=1e-05, elementwise_affine=True)
              )
              (7): ResidualAttentionBlock(
                (attn): Attention(
                  (out_proj): NonDynamicallyQuantizableLinear(in_features=1024, out_features=1024, bias=True)
                )
                (ln_1): LayerNorm((1024,), eps=1e-05, elementwise_affine=True)
                (mlp): Sequential(
                  (c_fc): Linear(in_features=1024, out_features=4096, bias=True)
                  (gelu): QuickGELU()
                  (c_proj): Linear(in_features=4096, out_features=1024, bias=True)
                )
                (ln_2): LayerNorm((1024,), eps=1e-05, elementwise_affine=True)
              )
              (8): ResidualAttentionBlock(
                (attn): Attention(
                  (out_proj): NonDynamicallyQuantizableLinear(in_features=1024, out_features=1024, bias=True)
                )
                (ln_1): LayerNorm((1024,), eps=1e-05, elementwise_affine=True)
                (mlp): Sequential(
                  (c_fc): Linear(in_features=1024, out_features=4096, bias=True)
                  (gelu): QuickGELU()
                  (c_proj): Linear(in_features=4096, out_features=1024, bias=True)
                )
                (ln_2): LayerNorm((1024,), eps=1e-05, elementwise_affine=True)
              )
              (9): ResidualAttentionBlock(
                (attn): Attention(
                  (out_proj): NonDynamicallyQuantizableLinear(in_features=1024, out_features=1024, bias=True)
                )
                (ln_1): LayerNorm((1024,), eps=1e-05, elementwise_affine=True)
                (mlp): Sequential(
                  (c_fc): Linear(in_features=1024, out_features=4096, bias=True)
                  (gelu): QuickGELU()
                  (c_proj): Linear(in_features=4096, out_features=1024, bias=True)
                )
                (ln_2): LayerNorm((1024,), eps=1e-05, elementwise_affine=True)
              )
              (10): ResidualAttentionBlock(
                (attn): Attention(
                  (out_proj): NonDynamicallyQuantizableLinear(in_features=1024, out_features=1024, bias=True)
                )
                (ln_1): LayerNorm((1024,), eps=1e-05, elementwise_affine=True)
                (mlp): Sequential(
                  (c_fc): Linear(in_features=1024, out_features=4096, bias=True)
                  (gelu): QuickGELU()
                  (c_proj): Linear(in_features=4096, out_features=1024, bias=True)
                )
                (ln_2): LayerNorm((1024,), eps=1e-05, elementwise_affine=True)
              )
              (11): ResidualAttentionBlock(
                (attn): Attention(
                  (out_proj): NonDynamicallyQuantizableLinear(in_features=1024, out_features=1024, bias=True)
                )
                (ln_1): LayerNorm((1024,), eps=1e-05, elementwise_affine=True)
                (mlp): Sequential(
                  (c_fc): Linear(in_features=1024, out_features=4096, bias=True)
                  (gelu): QuickGELU()
                  (c_proj): Linear(in_features=4096, out_features=1024, bias=True)
                )
                (ln_2): LayerNorm((1024,), eps=1e-05, elementwise_affine=True)
              )
              (12): ResidualAttentionBlock(
                (attn): Attention(
                  (out_proj): NonDynamicallyQuantizableLinear(in_features=1024, out_features=1024, bias=True)
                )
                (ln_1): LayerNorm((1024,), eps=1e-05, elementwise_affine=True)
                (mlp): Sequential(
                  (c_fc): Linear(in_features=1024, out_features=4096, bias=True)
                  (gelu): QuickGELU()
                  (c_proj): Linear(in_features=4096, out_features=1024, bias=True)
                )
                (ln_2): LayerNorm((1024,), eps=1e-05, elementwise_affine=True)
              )
              (13): ResidualAttentionBlock(
                (attn): Attention(
                  (out_proj): NonDynamicallyQuantizableLinear(in_features=1024, out_features=1024, bias=True)
                )
                (ln_1): LayerNorm((1024,), eps=1e-05, elementwise_affine=True)
                (mlp): Sequential(
                  (c_fc): Linear(in_features=1024, out_features=4096, bias=True)
                  (gelu): QuickGELU()
                  (c_proj): Linear(in_features=4096, out_features=1024, bias=True)
                )
                (ln_2): LayerNorm((1024,), eps=1e-05, elementwise_affine=True)
              )
              (14): ResidualAttentionBlock(
                (attn): Attention(
                  (out_proj): NonDynamicallyQuantizableLinear(in_features=1024, out_features=1024, bias=True)
                )
                (ln_1): LayerNorm((1024,), eps=1e-05, elementwise_affine=True)
                (mlp): Sequential(
                  (c_fc): Linear(in_features=1024, out_features=4096, bias=True)
                  (gelu): QuickGELU()
                  (c_proj): Linear(in_features=4096, out_features=1024, bias=True)
                )
                (ln_2): LayerNorm((1024,), eps=1e-05, elementwise_affine=True)
              )
              (15): ResidualAttentionBlock(
                (attn): Attention(
                  (out_proj): NonDynamicallyQuantizableLinear(in_features=1024, out_features=1024, bias=True)
                )
                (ln_1): LayerNorm((1024,), eps=1e-05, elementwise_affine=True)
                (mlp): Sequential(
                  (c_fc): Linear(in_features=1024, out_features=4096, bias=True)
                  (gelu): QuickGELU()
                  (c_proj): Linear(in_features=4096, out_features=1024, bias=True)
                )
                (ln_2): LayerNorm((1024,), eps=1e-05, elementwise_affine=True)
              )
              (16): ResidualAttentionBlock(
                (attn): Attention(
                  (out_proj): NonDynamicallyQuantizableLinear(in_features=1024, out_features=1024, bias=True)
                )
                (ln_1): LayerNorm((1024,), eps=1e-05, elementwise_affine=True)
                (mlp): Sequential(
                  (c_fc): Linear(in_features=1024, out_features=4096, bias=True)
                  (gelu): QuickGELU()
                  (c_proj): Linear(in_features=4096, out_features=1024, bias=True)
                )
                (ln_2): LayerNorm((1024,), eps=1e-05, elementwise_affine=True)
              )
              (17): ResidualAttentionBlock(
                (attn): Attention(
                  (out_proj): NonDynamicallyQuantizableLinear(in_features=1024, out_features=1024, bias=True)
                )
                (ln_1): LayerNorm((1024,), eps=1e-05, elementwise_affine=True)
                (mlp): Sequential(
                  (c_fc): Linear(in_features=1024, out_features=4096, bias=True)
                  (gelu): QuickGELU()
                  (c_proj): Linear(in_features=4096, out_features=1024, bias=True)
                )
                (ln_2): LayerNorm((1024,), eps=1e-05, elementwise_affine=True)
              )
              (18): ResidualAttentionBlock(
                (attn): Attention(
                  (out_proj): NonDynamicallyQuantizableLinear(in_features=1024, out_features=1024, bias=True)
                )
                (ln_1): LayerNorm((1024,), eps=1e-05, elementwise_affine=True)
                (mlp): Sequential(
                  (c_fc): Linear(in_features=1024, out_features=4096, bias=True)
                  (gelu): QuickGELU()
                  (c_proj): Linear(in_features=4096, out_features=1024, bias=True)
                )
                (ln_2): LayerNorm((1024,), eps=1e-05, elementwise_affine=True)
              )
              (19): ResidualAttentionBlock(
                (attn): Attention(
                  (out_proj): NonDynamicallyQuantizableLinear(in_features=1024, out_features=1024, bias=True)
                )
                (ln_1): LayerNorm((1024,), eps=1e-05, elementwise_affine=True)
                (mlp): Sequential(
                  (c_fc): Linear(in_features=1024, out_features=4096, bias=True)
                  (gelu): QuickGELU()
                  (c_proj): Linear(in_features=4096, out_features=1024, bias=True)
                )
                (ln_2): LayerNorm((1024,), eps=1e-05, elementwise_affine=True)
              )
              (20): ResidualAttentionBlock(
                (attn): Attention(
                  (out_proj): NonDynamicallyQuantizableLinear(in_features=1024, out_features=1024, bias=True)
                )
                (ln_1): LayerNorm((1024,), eps=1e-05, elementwise_affine=True)
                (mlp): Sequential(
                  (c_fc): Linear(in_features=1024, out_features=4096, bias=True)
                  (gelu): QuickGELU()
                  (c_proj): Linear(in_features=4096, out_features=1024, bias=True)
                )
                (ln_2): LayerNorm((1024,), eps=1e-05, elementwise_affine=True)
              )
              (21): ResidualAttentionBlock(
                (attn): Attention(
                  (out_proj): NonDynamicallyQuantizableLinear(in_features=1024, out_features=1024, bias=True)
                )
                (ln_1): LayerNorm((1024,), eps=1e-05, elementwise_affine=True)
                (mlp): Sequential(
                  (c_fc): Linear(in_features=1024, out_features=4096, bias=True)
                  (gelu): QuickGELU()
                  (c_proj): Linear(in_features=4096, out_features=1024, bias=True)
                )
                (ln_2): LayerNorm((1024,), eps=1e-05, elementwise_affine=True)
              )
              (22): ResidualAttentionBlock(
                (attn): Attention(
                  (out_proj): NonDynamicallyQuantizableLinear(in_features=1024, out_features=1024, bias=True)
                )
                (ln_1): LayerNorm((1024,), eps=1e-05, elementwise_affine=True)
                (mlp): Sequential(
                  (c_fc): Linear(in_features=1024, out_features=4096, bias=True)
                  (gelu): QuickGELU()
                  (c_proj): Linear(in_features=4096, out_features=1024, bias=True)
                )
                (ln_2): LayerNorm((1024,), eps=1e-05, elementwise_affine=True)
              )
              (23): ResidualAttentionBlock(
                (attn): Attention(
                  (out_proj): NonDynamicallyQuantizableLinear(in_features=1024, out_features=1024, bias=True)
                )
                (ln_1): LayerNorm((1024,), eps=1e-05, elementwise_affine=True)
                (mlp): Sequential(
                  (c_fc): Linear(in_features=1024, out_features=4096, bias=True)
                  (gelu): QuickGELU()
                  (c_proj): Linear(in_features=4096, out_features=1024, bias=True)
                )
                (ln_2): LayerNorm((1024,), eps=1e-05, elementwise_affine=True)
              )
            )
          )
          (ln_post): LayerNorm((1024,), eps=1e-05, elementwise_affine=True)
        )
        (transformer): Transformer(
          (resblocks): Sequential(
            (0): ResidualAttentionBlock(
              (attn): Attention(
                (out_proj): NonDynamicallyQuantizableLinear(in_features=768, out_features=768, bias=True)
              )
              (ln_1): LayerNorm((768,), eps=1e-05, elementwise_affine=True)
              (mlp): Sequential(
                (c_fc): Linear(in_features=768, out_features=3072, bias=True)
                (gelu): QuickGELU()
                (c_proj): Linear(in_features=3072, out_features=768, bias=True)
              )
              (ln_2): LayerNorm((768,), eps=1e-05, elementwise_affine=True)
            )
            (1): ResidualAttentionBlock(
              (attn): Attention(
                (out_proj): NonDynamicallyQuantizableLinear(in_features=768, out_features=768, bias=True)
              )
              (ln_1): LayerNorm((768,), eps=1e-05, elementwise_affine=True)
              (mlp): Sequential(
                (c_fc): Linear(in_features=768, out_features=3072, bias=True)
                (gelu): QuickGELU()
                (c_proj): Linear(in_features=3072, out_features=768, bias=True)
              )
              (ln_2): LayerNorm((768,), eps=1e-05, elementwise_affine=True)
            )
            (2): ResidualAttentionBlock(
              (attn): Attention(
                (out_proj): NonDynamicallyQuantizableLinear(in_features=768, out_features=768, bias=True)
              )
              (ln_1): LayerNorm((768,), eps=1e-05, elementwise_affine=True)
              (mlp): Sequential(
                (c_fc): Linear(in_features=768, out_features=3072, bias=True)
                (gelu): QuickGELU()
                (c_proj): Linear(in_features=3072, out_features=768, bias=True)
              )
              (ln_2): LayerNorm((768,), eps=1e-05, elementwise_affine=True)
            )
            (3): ResidualAttentionBlock(
              (attn): Attention(
                (out_proj): NonDynamicallyQuantizableLinear(in_features=768, out_features=768, bias=True)
              )
              (ln_1): LayerNorm((768,), eps=1e-05, elementwise_affine=True)
              (mlp): Sequential(
                (c_fc): Linear(in_features=768, out_features=3072, bias=True)
                (gelu): QuickGELU()
                (c_proj): Linear(in_features=3072, out_features=768, bias=True)
              )
              (ln_2): LayerNorm((768,), eps=1e-05, elementwise_affine=True)
            )
            (4): ResidualAttentionBlock(
              (attn): Attention(
                (out_proj): NonDynamicallyQuantizableLinear(in_features=768, out_features=768, bias=True)
              )
              (ln_1): LayerNorm((768,), eps=1e-05, elementwise_affine=True)
              (mlp): Sequential(
                (c_fc): Linear(in_features=768, out_features=3072, bias=True)
                (gelu): QuickGELU()
                (c_proj): Linear(in_features=3072, out_features=768, bias=True)
              )
              (ln_2): LayerNorm((768,), eps=1e-05, elementwise_affine=True)
            )
            (5): ResidualAttentionBlock(
              (attn): Attention(
                (out_proj): NonDynamicallyQuantizableLinear(in_features=768, out_features=768, bias=True)
              )
              (ln_1): LayerNorm((768,), eps=1e-05, elementwise_affine=True)
              (mlp): Sequential(
                (c_fc): Linear(in_features=768, out_features=3072, bias=True)
                (gelu): QuickGELU()
                (c_proj): Linear(in_features=3072, out_features=768, bias=True)
              )
              (ln_2): LayerNorm((768,), eps=1e-05, elementwise_affine=True)
            )
            (6): ResidualAttentionBlock(
              (attn): Attention(
                (out_proj): NonDynamicallyQuantizableLinear(in_features=768, out_features=768, bias=True)
              )
              (ln_1): LayerNorm((768,), eps=1e-05, elementwise_affine=True)
              (mlp): Sequential(
                (c_fc): Linear(in_features=768, out_features=3072, bias=True)
                (gelu): QuickGELU()
                (c_proj): Linear(in_features=3072, out_features=768, bias=True)
              )
              (ln_2): LayerNorm((768,), eps=1e-05, elementwise_affine=True)
            )
            (7): ResidualAttentionBlock(
              (attn): Attention(
                (out_proj): NonDynamicallyQuantizableLinear(in_features=768, out_features=768, bias=True)
              )
              (ln_1): LayerNorm((768,), eps=1e-05, elementwise_affine=True)
              (mlp): Sequential(
                (c_fc): Linear(in_features=768, out_features=3072, bias=True)
                (gelu): QuickGELU()
                (c_proj): Linear(in_features=3072, out_features=768, bias=True)
              )
              (ln_2): LayerNorm((768,), eps=1e-05, elementwise_affine=True)
            )
            (8): ResidualAttentionBlock(
              (attn): Attention(
                (out_proj): NonDynamicallyQuantizableLinear(in_features=768, out_features=768, bias=True)
              )
              (ln_1): LayerNorm((768,), eps=1e-05, elementwise_affine=True)
              (mlp): Sequential(
                (c_fc): Linear(in_features=768, out_features=3072, bias=True)
                (gelu): QuickGELU()
                (c_proj): Linear(in_features=3072, out_features=768, bias=True)
              )
              (ln_2): LayerNorm((768,), eps=1e-05, elementwise_affine=True)
            )
            (9): ResidualAttentionBlock(
              (attn): Attention(
                (out_proj): NonDynamicallyQuantizableLinear(in_features=768, out_features=768, bias=True)
              )
              (ln_1): LayerNorm((768,), eps=1e-05, elementwise_affine=True)
              (mlp): Sequential(
                (c_fc): Linear(in_features=768, out_features=3072, bias=True)
                (gelu): QuickGELU()
                (c_proj): Linear(in_features=3072, out_features=768, bias=True)
              )
              (ln_2): LayerNorm((768,), eps=1e-05, elementwise_affine=True)
            )
            (10): ResidualAttentionBlock(
              (attn): Attention(
                (out_proj): NonDynamicallyQuantizableLinear(in_features=768, out_features=768, bias=True)
              )
              (ln_1): LayerNorm((768,), eps=1e-05, elementwise_affine=True)
              (mlp): Sequential(
                (c_fc): Linear(in_features=768, out_features=3072, bias=True)
                (gelu): QuickGELU()
                (c_proj): Linear(in_features=3072, out_features=768, bias=True)
              )
              (ln_2): LayerNorm((768,), eps=1e-05, elementwise_affine=True)
            )
            (11): ResidualAttentionBlock(
              (attn): Attention(
                (out_proj): NonDynamicallyQuantizableLinear(in_features=768, out_features=768, bias=True)
              )
              (ln_1): LayerNorm((768,), eps=1e-05, elementwise_affine=True)
              (mlp): Sequential(
                (c_fc): Linear(in_features=768, out_features=3072, bias=True)
                (gelu): QuickGELU()
                (c_proj): Linear(in_features=3072, out_features=768, bias=True)
              )
              (ln_2): LayerNorm((768,), eps=1e-05, elementwise_affine=True)
            )
          )
        )
        (token_embedding): Embedding(49408, 768)
        (ln_final): LayerNorm((768,), eps=1e-05, elementwise_affine=True)
      )
      (transformer): Aggregator(
        (layers): ModuleList(
          (0): AggregatorLayer(
            (swin_block): SwinTransformerBlockWrapper(
              (block_1): SwinTransformerBlock(
                (norm1): LayerNorm((128,), eps=1e-05, elementwise_affine=True)
                (attn): WindowAttention(
                  (q): Linear(in_features=256, out_features=128, bias=True)
                  (k): Linear(in_features=256, out_features=128, bias=True)
                  (v): Linear(in_features=128, out_features=128, bias=True)
                  (attn_drop): Dropout(p=0.0, inplace=False)
                  (proj): Linear(in_features=128, out_features=128, bias=True)
                  (proj_drop): Dropout(p=0.0, inplace=False)
                  (softmax): Softmax(dim=-1)
                )
                (drop_path): Identity()
                (norm2): LayerNorm((128,), eps=1e-05, elementwise_affine=True)
                (mlp): Mlp(
                  (fc1): Linear(in_features=128, out_features=512, bias=True)
                  (act): GELU(approximate='none')
                  (drop1): Dropout(p=0.0, inplace=False)
                  (fc2): Linear(in_features=512, out_features=128, bias=True)
                  (drop2): Dropout(p=0.0, inplace=False)
                )
              )
              (block_2): SwinTransformerBlock(
                (norm1): LayerNorm((128,), eps=1e-05, elementwise_affine=True)
                (attn): WindowAttention(
                  (q): Linear(in_features=256, out_features=128, bias=True)
                  (k): Linear(in_features=256, out_features=128, bias=True)
                  (v): Linear(in_features=128, out_features=128, bias=True)
                  (attn_drop): Dropout(p=0.0, inplace=False)
                  (proj): Linear(in_features=128, out_features=128, bias=True)
                  (proj_drop): Dropout(p=0.0, inplace=False)
                  (softmax): Softmax(dim=-1)
                )
                (drop_path): Identity()
                (norm2): LayerNorm((128,), eps=1e-05, elementwise_affine=True)
                (mlp): Mlp(
                  (fc1): Linear(in_features=128, out_features=512, bias=True)
                  (act): GELU(approximate='none')
                  (drop1): Dropout(p=0.0, inplace=False)
                  (fc2): Linear(in_features=512, out_features=128, bias=True)
                  (drop2): Dropout(p=0.0, inplace=False)
                )
              )
              (guidance_norm): LayerNorm((128,), eps=1e-05, elementwise_affine=True)
            )
            (attention): ClassTransformerLayer(
              (pool): AvgPool2d(kernel_size=[2, 2], stride=[2, 2], padding=0)
              (attention): AttentionLayer(
                (q): Linear(in_features=256, out_features=128, bias=True)
                (k): Linear(in_features=256, out_features=128, bias=True)
                (v): Linear(in_features=128, out_features=128, bias=True)
                (attention): LinearAttention()
              )
              (MLP): Sequential(
                (0): Linear(in_features=128, out_features=512, bias=True)
                (1): ReLU()
                (2): Linear(in_features=512, out_features=128, bias=True)
              )
              (norm1): LayerNorm((128,), eps=1e-05, elementwise_affine=True)
              (norm2): LayerNorm((128,), eps=1e-05, elementwise_affine=True)
            )
          )
          (1): AggregatorLayer(
            (swin_block): SwinTransformerBlockWrapper(
              (block_1): SwinTransformerBlock(
                (norm1): LayerNorm((128,), eps=1e-05, elementwise_affine=True)
                (attn): WindowAttention(
                  (q): Linear(in_features=256, out_features=128, bias=True)
                  (k): Linear(in_features=256, out_features=128, bias=True)
                  (v): Linear(in_features=128, out_features=128, bias=True)
                  (attn_drop): Dropout(p=0.0, inplace=False)
                  (proj): Linear(in_features=128, out_features=128, bias=True)
                  (proj_drop): Dropout(p=0.0, inplace=False)
                  (softmax): Softmax(dim=-1)
                )
                (drop_path): Identity()
                (norm2): LayerNorm((128,), eps=1e-05, elementwise_affine=True)
                (mlp): Mlp(
                  (fc1): Linear(in_features=128, out_features=512, bias=True)
                  (act): GELU(approximate='none')
                  (drop1): Dropout(p=0.0, inplace=False)
                  (fc2): Linear(in_features=512, out_features=128, bias=True)
                  (drop2): Dropout(p=0.0, inplace=False)
                )
              )
              (block_2): SwinTransformerBlock(
                (norm1): LayerNorm((128,), eps=1e-05, elementwise_affine=True)
                (attn): WindowAttention(
                  (q): Linear(in_features=256, out_features=128, bias=True)
                  (k): Linear(in_features=256, out_features=128, bias=True)
                  (v): Linear(in_features=128, out_features=128, bias=True)
                  (attn_drop): Dropout(p=0.0, inplace=False)
                  (proj): Linear(in_features=128, out_features=128, bias=True)
                  (proj_drop): Dropout(p=0.0, inplace=False)
                  (softmax): Softmax(dim=-1)
                )
                (drop_path): Identity()
                (norm2): LayerNorm((128,), eps=1e-05, elementwise_affine=True)
                (mlp): Mlp(
                  (fc1): Linear(in_features=128, out_features=512, bias=True)
                  (act): GELU(approximate='none')
                  (drop1): Dropout(p=0.0, inplace=False)
                  (fc2): Linear(in_features=512, out_features=128, bias=True)
                  (drop2): Dropout(p=0.0, inplace=False)
                )
              )
              (guidance_norm): LayerNorm((128,), eps=1e-05, elementwise_affine=True)
            )
            (attention): ClassTransformerLayer(
              (pool): AvgPool2d(kernel_size=[2, 2], stride=[2, 2], padding=0)
              (attention): AttentionLayer(
                (q): Linear(in_features=256, out_features=128, bias=True)
                (k): Linear(in_features=256, out_features=128, bias=True)
                (v): Linear(in_features=128, out_features=128, bias=True)
                (attention): LinearAttention()
              )
              (MLP): Sequential(
                (0): Linear(in_features=128, out_features=512, bias=True)
                (1): ReLU()
                (2): Linear(in_features=512, out_features=128, bias=True)
              )
              (norm1): LayerNorm((128,), eps=1e-05, elementwise_affine=True)
              (norm2): LayerNorm((128,), eps=1e-05, elementwise_affine=True)
            )
          )
        )
        (conv1): Conv2d(1, 128, kernel_size=(7, 7), stride=(1, 1), padding=(3, 3))
        (guidance_projection): Sequential(
          (0): Conv2d(768, 128, kernel_size=(3, 3), stride=(1, 1), padding=(1, 1))
          (1): ReLU()
        )
        (text_guidance_projection): Sequential(
          (0): Linear(in_features=768, out_features=128, bias=True)
          (1): ReLU()
        )
        (decoder_guidance_projection): ModuleList(
          (0): Sequential(
            (0): Conv2d(256, 32, kernel_size=(3, 3), stride=(1, 1), padding=(1, 1))
            (1): ReLU()
          )
          (1): Sequential(
            (0): Conv2d(128, 16, kernel_size=(3, 3), stride=(1, 1), padding=(1, 1))
            (1): ReLU()
          )
        )
        (decoder1): Up(
          (up): ConvTranspose2d(128, 96, kernel_size=(2, 2), stride=(2, 2))
          (conv): DoubleConv(
            (double_conv): Sequential(
              (0): Conv2d(128, 64, kernel_size=(3, 3), stride=(1, 1), padding=(1, 1), bias=False)
              (1): GroupNorm(4, 64, eps=1e-05, affine=True)
              (2): ReLU(inplace=True)
              (3): Conv2d(64, 64, kernel_size=(3, 3), stride=(1, 1), padding=(1, 1), bias=False)
              (4): GroupNorm(4, 64, eps=1e-05, affine=True)
              (5): ReLU(inplace=True)
            )
          )
        )
        (decoder2): Up(
          (up): ConvTranspose2d(64, 48, kernel_size=(2, 2), stride=(2, 2))
          (conv): DoubleConv(
            (double_conv): Sequential(
              (0): Conv2d(64, 32, kernel_size=(3, 3), stride=(1, 1), padding=(1, 1), bias=False)
              (1): GroupNorm(2, 32, eps=1e-05, affine=True)
              (2): ReLU(inplace=True)
              (3): Conv2d(32, 32, kernel_size=(3, 3), stride=(1, 1), padding=(1, 1), bias=False)
              (4): GroupNorm(2, 32, eps=1e-05, affine=True)
              (5): ReLU(inplace=True)
            )
          )
        )
        (head): Conv2d(32, 1, kernel_size=(3, 3), stride=(1, 1), padding=(1, 1))
      )
    )
  )
  (upsample1): ConvTranspose2d(1024, 256, kernel_size=(2, 2), stride=(2, 2))
  (upsample2): ConvTranspose2d(1024, 128, kernel_size=(4, 4), stride=(4, 4))
)
[11/19 05:16:34] d2.checkpoint.detection_checkpoint INFO: [DetectionCheckpointer] Loading from model_large.pth ...
[11/19 05:16:34] fvcore.common.checkpoint INFO: [Checkpointer] Loading from model_large.pth ...
[11/19 05:16:35] d2.data.datasets.coco INFO: Loaded 2000 images with semantic segmentation from /home/qiming/Desktop/datasets/ADE150/ADEChallengeData2016/images/validation
…
